ai/model/model.pth (torch, 16799 bytes, 4 tensors)

linear1.weight f4 [256, 11]
00000000: eeab 5e3e 8bc0 553e 4964 b53d ec54 88be
00000010: 00ac 12bd 9d44 63bd 6a82 483e df50 5d3e
00000020: 1147 203e 2421 80bc 9842 a9bc 6e39 67bd
00000030: efb8 c63e 9c27 2e3e 3149 623e e289 7fbe
00000040: e959 353e 8265 413e 5323 243e 38bf 41be
00000050: 0f12 85be 1193 673e 0b5c bc3e c371 bcbe
00000060: 5d21 a23e 49ad 8ebd 4237 153b a167 c53d
00000070: cf5f 453e 6aeb 3dbe 97fe 363d d230 0cbe
00000080: 8db7 00be e0e2 c83c a41f 87be d8a3 ea3d
00000090: 98f2 72be ba26 c03d ae0b c33d 1c24 553e
000000a0: 8096 fcbd 562d 4fbe 8731 223e 9ee7 92be
000000b0: e470 5f3e 4013 003d 661b f8bd 48d2 5e3e
000000c0: 626b f73c bd40 493e d826 9dbd be56 9abd
000000d0: 8e88 66be 5c85 7fbe 061d 14be 4e6b f03d
000000e0: 5abd 20be fe5f 803e cfb5 a6bc 5bcc 41be
000000f0: f881 733e 2c00 5fbe 6e58 9bbd f029 b73c
00000100: f0ac 9bbe 69c4 03bd cb26 e7bd 5f9e 42be
00000110: d3fd 643e c495 debb c6b2 bb3d 0590 86be
00000120: 52bf bebd 4469 2dbe f7b7 8bbe feff 92be
00000130: f009 173d 5851 b13e b668 e13d 6bd1 323e
00000140: bfec 153e f41b e1bc f028 703e bcf6 073e
00000150: 2490 53be 8900 633e 89c3 953e 3253 9e3e
00000160: a482 a7be 9026 bcbd 3d65 903e 9b86 34be
00000170: 70e8 853e c1ca 92bc db7a 1bbe 5eac b53d
00000180: a87a 933e 545c 8c3e cb5a 07be 81d6 d93d
00000190: 32cf 97bd 2265 afbe 3c13 67bd b5cf 123e
000001a0: 9291 43be b75d 70bd 9abd 7d3e 094d 14bc
000001b0: 3a9e 90be 9e44 9f3d 97fc 9a3c 53f2 96be
000001c0: 038c 923e fcba 9cbd 4353 0c3e f1a2 0b3e
000001d0: 3c98 8d3e 42a6 ebbd dbd7 51be 0386 dabd
000001e0: f28c 86be 6c2e c53e 1767 6a3e f0e6 333c
000001f0: 0be5 65be 3361 b2bc d31c 973e 1341 7a3e
00000200: a501 48be e6a9 b4be 4c3c 913e 1968 cdbd
00000210: 8620 b9be 483e 903e 09a5 5a3e 7b11 81bd
00000220: 79fb 1dbd 4de0 603e 0c3a 9a3d 6a60 1bbe
00000230: a9e7 dfbd 51b9 b0bd 2f9f 973d 533b 943d
00000240: c80b afbe 73ea 8b3d c719 763e f45b 623d
00000250: 65a4 ce3d 8072 57be 4ade 553e e426 8cbe
00000260: 6e8a 5f3e 0d00 533d e1b8 a13d 9558 263e
00000270: 77ab ea3d cec7 623e 4be6 763c cbb3 c03d
00000280: 2c87 e33b 49bb 4cbe f436 90be 6f66 4ebe
00000290: cae5 59be 2f99 fd3d 728e 333e 74aa 6dbe
000002a0: 5583 3cbe 3f47 88be 2138 2e3c b7c0 1b3e
000002b0: 785a 63be 546a 953b c959 efbd 9281 cdbd
000002c0: 1f99 f53d c774 8b3e ba3e a8bd 4ed6 9e3d
000002d0: 715c 67be 8a44 1c3e 0bfd 863d 602b 5ebe
000002e0: dc19 1c3e a4f9 723e ce2e 3c3e 7341 913d
000002f0: 7f94 e2bd 96e2 a5bd bd78 803e d709 46be
00000300: 1eeb 2a3e 7e2e 87be 7a9a 013e 4bab 95be
00000310: 40db 6abd 7ea7 7b3e 9ab7 9c3e 69c2 edbd
00000320: 2601 883e eac5 333e 326b 133e b193 3fbe
00000330: a073 223e b52b 46bc d0d5 843e 9e7e 5e3e
00000340: e9bf 8dbd 6690 d0bd 3abb c33d 2770 9e3c
00000350: 7e87 45be 8607 883d 33c8 d2bd bcce 933e
00000360: 2635 70be 5ad9 06bd efec a7bd 4a7a 09bd
00000370: 8a51 62bd 5992 153e 328b 813e d4ca c43d
00000380: 020e 5e3e 3125 683e d8a0 39be 76b1 623d
00000390: 7451 84be 248f 6dbc 0cbb f1bc 24a0 ce3d
000003a0: 97e2 82bd 008b c4bb cf1d c4bd c2de 63be
000003b0: 3616 8ebe 699a 98be c0ac de3d a20e 443e
000003c0: 363c 44be a872 9d3c 535e aabe 1237 ae3e
000003d0: 6000 da3e aaf2 983e 766d 2d3d c776 4a3e
000003e0: 2ba9 39be c6a0 213e 53ea 973e 64ee 633d
000003f0: 519b 493c 4e1c a83c 66a6 b1bd b69d 8c3d
0.21745273 0.2087423 0.088570185 -0.2662729 -0.035808563 -0.055485357 0.19580999 0.21612881
0.1565211 -0.015640803 -0.020661637 -0.056451254 0.38812968 0.17007297 0.22098233 -0.24954942
0.17710079 0.18886378 0.160291 -0.189206 -0.2599034 0.22614695 0.36788973 -0.36805543
0.3166608 -0.06966645 0.0022768532 0.09638906 0.1927483 -0.18546835 0.04467639 -0.13690498
-0.12570019 0.024522245 -0.26391327 0.11457032 -0.23725355 0.093823865 0.09523712 0.20814556
-0.12333393 -0.20232138 0.15839206 -0.28692335 0.21820408 0.03126836 -0.12114601 0.21759903
0.030202571 0.19653602 -0.076734245 -0.07536076 -0.22513029 -0.24953216 -0.14464197 0.11739217
-0.15697232 0.25073236 -0.020350365 -0.18925612 0.23780048 -0.2177741 -0.07585226 0.022358865
-0.30405378 -0.032169733 -0.11286696 -0.19005726 0.22362451 -0.006792756 0.09164958 -0.26281753
-0.09313835 -0.16934687 -0.27288792 -0.28710932 0.03687471 0.34632373 0.110063 0.17462699
0.14641093 -0.02747915 0.23453116 0.13277715 -0.20660454 0.22168173 0.29250744 0.30922848
-0.32716858 -0.09187043 0.2820224 -0.17629473 0.26153898 -0.017918946 -0.15183584 0.08870767
0.28804517 0.2741419 -0.13218229 0.106366165 -0.07412566 -0.34256846 -0.056414828 0.14337046
-0.190985 -0.058683123 0.24779359 -0.00905157 -0.28245717 0.077767596 0.018919272 -0.29481754
0.28622445 -0.07652852 0.13703637 0.13636376 0.27655208 -0.115063205 -0.20492499 -0.10670092
-0.26279408 0.3851198 0.22890888 0.010980353 -0.22450654 -0.021774864 0.2951418 0.24438886
-0.19531877 -0.35285872 0.28366315 -0.10029621 -0.36157626 0.28172517 0.21352018 -0.06302162
-0.0385699 0.21960564 0.07530603 -0.15173498 -0.109328575 -0.08629096 0.07403409 0.07237878
-0.34188676 0.06831827 0.24033271 0.055263475 0.100899495 -0.21039772 0.20885578 -0.2737342
0.2183015 0.05151372 0.07896591 0.16244729 0.114584856 0.22146532 0.015069555 0.09409293
0.006943604 -0.19993319 -0.28166926 -0.20156263 -0.21279064 0.12382733 0.17534807 -0.23209554
-0.18409474 -0.26616856 0.010633499 0.15210234 -0.2220248 0.0045597944 -0.11687047 -0.10034479
0.11992096 0.27237532 -0.08215089 0.07755719 -0.22593857 0.1526052 0.06591233 -0.21696234
0.1524424 0.23728043 0.1837723 0.070925616 -0.1106348 -0.080998585 0.25092116 -0.19339691
0.16691253 -0.26402658 0.12656584 -0.2923225 -0.057338 0.24575612 0.30608827 -0.116093464
0.26563376 0.17555967 0.1439636 -0.18708684 0.1586442 -0.0120953815 0.25944376 0.21727988
-0.069213696 -0.10183792 0.09557195 0.019340588 -0.19289967 0.0664206 -0.10292091 0.28868663
-0.23457775 -0.032922126 -0.08199488 -0.03356389 -0.055253543 0.14606608 0.2530151 0.09608999
0.21685031 0.22670437 -0.18127763 0.05534502 -0.25843394 -0.014499459 -0.029508136 0.10089138
-0.06390875 -0.0059980154 -0.09575998 -0.22252944 -0.2775132 -0.29805306 0.10872793 0.19146207
-0.19163594 0.019219711 -0.3327509 0.3402639 0.4257841 0.29872638 0.04234072 0.19771872
-0.18130939 0.15783986 0.29670963 0.05564727 0.012305097 0.02052131 -0.08674316 0.068660185

linear1.bias f4 [256]
00000000: 9a80 5e3e afd6 05bd 1700 dc3e 364b a93c
00000010: 9ab9 9fbd 2dad ed3d f291 9d3e 5a84 c93d
00000020: 1bd9 40bd d1d4 fa3d 261e 67bd 3ab7 fe3d
00000030: 9572 a23e 0bf1 94be ef92 8a3e 3b8f 2c3e
00000040: ca6e 3c3e 7389 483d bd6d d43d 6277 48bb
00000050: b421 5bbe e9a7 09be a6f3 fc3d 0991 b63d
00000060: 1961 8f3d 7b2f b83e 9597 f4bd 6c13 9cbe
00000070: b1d1 fc3d 4565 3a3e b3b0 8c3c ba1d 86be
00000080: 2821 3ebe 3591 aa3e daec 04be bd7c b7bd
00000090: 405b b23e 5ac1 97bd 31ae a93e 83bb 8a3e
000000a0: f123 313e de23 ad3e 24bf 573e 8acd 713d
000000b0: 6e69 2a3e 7742 a73d 13f9 d03d 535d a63d
000000c0: aab6 8c3e 2426 fbbd bdae 833e 47c0 053e
000000d0: 3c6b 823e 5117 9b3e 1b5f ba3e e99b 563e
000000e0: b127 723e 41f5 85be 6803 f2bd fd96 b23e
000000f0: 443d 6bbe 0f13 ae3e a793 9b3e f0e4 063e
00000100: 90a5 713e 912f 26be 02e3 eabd d72e 84bd
00000110: 2a4a 4e3d 5c46 cf3d 2ac5 153e 05f3 ce3d
00000120: 685a 51be d73e b6bd 4f3e 41be ba3f 91be
00000130: cca8 4fbe 0e07 6d3e 207f 683e 0efb 893e
00000140: 8363 bd3e 4075 d23e ff46 71be 43b9 9dbe
00000150: 7afa a43e 26a9 c73e 4457 69be ea50 193e
00000160: cad0 90be 76d4 0b3e e539 1e3e ef02 453d
00000170: 7045 82be 7c7f 423e 2db4 b93e 0ab0 da3d
00000180: 77a8 e33d 1acb e13d 9a98 bc3c f956 dc3d
00000190: 6f2a 963e 6797 93bd de02 1fbe c5bc 0a3d
000001a0: d791 8abe 659d 953e 398e 473e 469c 6f3e
000001b0: a9d8 9dba 2c60 883d fa65 13be 70c2 8f3e
000001c0: c6e0 2abe ceb3 9dbc 3d2a 923e 74e7 4c3e
000001d0: 177c 62be 77cb 143e 98ae 42be 0787 e53c
000001e0: f864 023e b225 22be 8a9e 40be 9889 5fbe
000001f0: 20e9 773e f852 98bc 96ba d6bd d4ea 77be
00000200: e10e 173e 1ec4 153e fb0f 38bd 4365 7c3d
00000210: 34c7 af3e ee79 7e3e 2b0a 4dbe aa28 dfbd
00000220: 1f02 46be 3bf1 94bd 3ab7 88be c705 513e
00000230: c34d 6a3e 6eb9 8bbd f7ca ef3d e5b3 7e3e
00000240: dc16 363e 8d35 5cbe 9d5c 943c ac7b 153e
00000250: fa24 ac3e 1808 0e3e ac84 8d3d bc7b 54be
00000260: cbe2 813e 7517 92bd 50ad a93d 43c3 9b3b
00000270: 04db 55be 5ab5 5c3e 16c3 12be 3d6b 07be
00000280: d63f b43e 726b 7c3e 7b43 53bd c408 cabd
00000290: e682 89bd 6ddc 173e 2157 073e 5f8c dd3d
000002a0: b238 8abe 92cc f1bd 87cd 723e 2120 d03d
000002b0: 6fa7 423d 50b2 71be 80a8 fcbd 28d9 d73d
000002c0: 6bf7 1cbe 0fff 373e 3839 a5bd f110 bb3d
000002d0: 7098 70be 2981 123e 6eb4 29be 7c47 55bd
000002e0: 8b08 423e 8b50 af3e 35c7 813e 9199 b53e
000002f0: fe04 8c3e 8a34 723c dc82 b8bd 96de d6bd
00000300: 72b8 c73e e5f1 b13d 1228 2d3d f814 b93e
00000310: 6a59 06be 094a c4bc 1947 883e 92c7 6f3e
00000320: 3847 923e 2b21 703e b454 ba3e b076 8cbe
00000330: 1748 0cbd a206 b13e 1289 a6be a7b0 32be
00000340: 2f05 603e 8950 b9bd 2af9 243e 965f 533e
00000350: 336b af3e 4281 21be 135b cc3e 2ad9 373e
00000360: cd20 d0bc d3cf 46be 1fe6 453e 3958 cebd
00000370: f902 8d3e 911e 9c3d 9fb2 29bd c8c2 ac3e
00000380: 12e3 963e b721 d33e 6e4c 99be cd91 253e
00000390: f1ab 2ebd a3d2 0fbe a9ef 923e 1ae1 333e
000003a0: 9b6d d0bc 7089 51bd 6cb4 713e 1ad4 a23c
000003b0: fed9 a2be 9ae1 7a3e 0320 bf3e c0de 30bc
000003c0: fa67 00be 6679 1d3d f6c5 633e a56a d63e
000003d0: ec98 8bbe 495e da3d 348e 483e ae19 c43e
000003e0: a235 9ebe a14b b8be f10e 843d 8f78 1f3e
000003f0: 4863 f63d c138 5bbd 8453 623e c4a8 6f3e
0.21728745 -0.03267544 0.4296882 0.020665746 -0.077990726 0.11605296 0.3077541 0.09839697
-0.047082048 0.12247623 -0.056425236 0.124372914 0.31728044 -0.2909015 0.27065226 0.16851513
0.18401638 0.048959207 0.103724934 -0.0030588736 -0.21399575 -0.13442959 0.1235116 0.08914382
0.07000942 0.35973725 -0.119429745 -0.30483568 0.12344683 0.18202694 0.0171741 -0.26194555
-0.18567336 0.3331391 -0.12980977 -0.08959339 0.34835243 -0.07409926 0.3314071 0.27096185
0.17298867 0.33816427 0.21069008 0.059033908 0.1664178 0.08166974 0.10203757 0.08123269
0.27483112 -0.12263134 0.25719252 0.13061629 0.25472438 0.30291227 0.36400685 0.20957913
0.23647954 -0.26163676 -0.11817056 0.3488082 -0.2297259 0.33998916 0.30386087 0.1317327
0.23598313 -0.16229083 -0.114690796 -0.064542465 0.050363697 0.10120842 0.14625993 0.10104946
-0.20444643 -0.088987045 -0.18871425 -0.28368932 -0.20279235 0.23147222 0.22704744 0.26949352
0.36989984 0.4110508 -0.23562239 -0.30805406 0.32222348 0.38996238 -0.22787195 0.14972273
-0.28284293 0.13655266 0.15451773 0.0480985 -0.25443602 0.18993944 0.36270276 0.10678108
0.111161165 0.11025067 0.023021985 0.10758776 0.2932925 -0.07206612 -0.15528437 0.03387143
-0.27064392 0.29221645 0.19487847 0.23399457 -0.0012042719 0.06658968 -0.1439437 0.28078032
-0.16687307 -0.019250777 0.2854785 0.20010167 -0.22117649 0.1453074 -0.19011915 0.028018488
0.12733829 -0.15834692 -0.18810478 -0.21829832 0.24210024 -0.01859425 -0.10484807 -0.24210674
0.1475177 0.14625594 -0.044937115 0.06162001 0.34331667 0.248512 -0.2002341 -0.10896428
-0.19336747 -0.072725736 -0.2670229 0.2041236 0.22881226 -0.06822477 0.11708634 0.24873312
0.17782158 -0.21504803 0.018110568 0.14597958 0.3362196 0.13870275 0.06910071 -0.20750326
0.25368342 -0.0713338 0.0828501 0.0047535016 -0.20884329 0.21553555 -0.14332232 -0.13224502
0.35204953 0.24650362 -0.051578026 -0.09864953 -0.0671442 0.1483018 0.13216831 0.10817789
-0.2699638 -0.11806597 0.23711215 0.10162378 0.04752296 -0.23603177 -0.12336826 0.10539466
-0.15328757 0.17968391 -0.08067554 0.09134091 -0.2349565 0.14307083 -0.16572735 -0.052070126
0.18948571 0.34241137 0.25347295 0.35468724 0.2734756 0.014783034 -0.090093344 -0.10491674
0.39007908 0.08688716 0.042274542 0.3614881 -0.13120046 -0.023961084 0.26616743 0.23415974
0.2856996 0.23450153 0.36392748 -0.274343 -0.034248438 0.34575373 -0.3252645 -0.174502
0.21876977 -0.09048564 0.16110674 0.20641932 0.34261474 -0.15771964 0.39913234 0.17953935
-0.025406266 -0.19415216 0.19326065 -0.10075421 0.2754133 0.076230176 -0.041430112 0.33742356
0.29470116 0.4123666 -0.29941124 0.161689 -0.042644445 -0.14045195 0.2869847 0.17566338
-0.025442889 -0.05115646 0.23603982 0.019876529 -0.3180694 0.24500123 0.3732911 -0.010795295
-0.12539664 0.038445853 0.22243485 0.41878238 -0.27265108 0.10662515 0.19585496 0.38300842
-0.30900294 -0.359952 0.06448162 0.15573333 0.12030655 -0.05352092 0.22102171 0.23404223

linear2.weight f4 [3, 256]
00000000: 9cf5 c9bd 6cdb 97bd 08c5 d1bd 56ce 3cbc
00000010: 230b 253d 1aa8 243d 7ca2 67bd b239 f7bd
00000020: a9e1 dc3c fbd2 27bd 4ecb 523c d04b 94bd
00000030: 418d d13b 1f28 1cbd 8d81 41bc 03f3 833a
00000040: 31bf ebbc 546b ad3c 0d11 e6bd 3dc6 7b3d
00000050: 0bbf 2abd d65b 483c ad3d 34bd 6318 6fbd
00000060: 2ba6 bbbb 2daf 91bd 09e2 cebd f5e6 563d
00000070: 957e 423c 863d 48bd ce48 19bd 2603 213c
00000080: 917f 54bd b759 78bd e528 78bc 7490 523c
00000090: 500b cfbd a309 33bc 0bee efbd f553 97bb
000000a0: a12f 29bd 0fda e9bc be48 90bd a765 5ebd
000000b0: 6a18 98bb cf1e adbc eea3 fd3c bf9e ecbb
000000c0: 2a60 b0bd 9ce9 bc3d 7b41 f8bd f263 cbbd
000000d0: defe 88bd c86f bbbd 0b72 83bd 4529 a8bd
000000e0: 8e6c 623d 4b55 5a3d aae1 c0bc dfef 0cbe
000000f0: e270 fe3d f0af 8fbd b1ed a83c 34ca b5bd
00000100: 9917 d6bd 993a 3e3c ed03 05be af37 873c
00000110: af25 bdbc 6e71 09be 7294 583c cbbd febc
00000120: 5626 6d3c be70 33bd 5466 4dbd 5797 f03c
00000130: 7fd9 1a3d da3f 86bd 6062 f03c 1478 16be
00000140: 98d4 00be ef54 d2bd fc30 82bc 3b66 bfbc
00000150: 4e1f 93bc 49b6 07be ccf9 693d 68c0 e1bd
00000160: 1267 65bd f9ab c2bd 05f5 89bd c71c 4dbd
00000170: a304 3cbd ef77 c3bc e5b9 e2bd afac 4bbc
00000180: 647c b13b 0b8d a5bd 2917 1f3d d4dc 97bd
00000190: f7a9 02be b40b 02be 0d40 61bd 2895 bf38
000001a0: 388d 2d3d ba0e 51bd be36 f8bc a652 9ebc
000001b0: 7f40 b73c b37a 933d d744 bd3c 3a76 dbbd
000001c0: 9785 58bd b616 d9bd 88cd b5bd a50c d3bd
000001d0: b13b c2bd a889 e13b 2fb0 ecbb acd1 8bbd
000001e0: 864e 11bd 6c06 153d 6050 953c 203b 13bb
000001f0: 6305 81bd ebbf 02be a353 253b f1d7 cabc
00000200: 60e0 fcbd fe50 96bd 3884 a5bd 0aa7 2fbd
00000210: ec65 cfbd a610 eb3c 7d40 a83c 0786 11be
00000220: ce95 eb3c ee4c 0f3c 7179 b3bc b580 f9bc
00000230: 25d0 a3bd 64d0 d0bd 7d06 7abd e29b 0dbe
00000240: 4f9b 0abe bcd8 5a39 e290 2a3d 721c 9fbc
00000250: 454c f4bd 16ec b83b a8ef 82bc 287d 19bc
00000260: 88ec 0ebc 3862 b2bd b185 b4bd 87ff 68bd
00000270: fd76 233d 30b4 02be 12a1 2fbd 86eb 033b
00000280: 1680 82bb 6107 6a3c d846 2bbd ff65 11bc
00000290: 8386 1bbe 443d e2ba f401 d2bd 360e 73bd
000002a0: 3441 333c b034 f7bd 9e28 d9bd 43b2 2e3d
000002b0: 117f eabd 5237 10bd 6aa8 803d f8a8 76bd
000002c0: 10e4 93bc e9b7 01be 1329 37bc cf09 11ba
000002d0: 30b5 a3bd 4274 8fbd 8895 923d 71cb e6bd
000002e0: 7abd 00be 8cf6 8abd 751d d1bd 3427 05be
000002f0: 5a11 4dbd f4e8 093d 6cf3 843d d368 0d3c
00000300: d130 e6bd eaf7 37bd caed 44bd 6ce5 08be
00000310: 43af 40bd 4a30 34bd fcaa 8e3d d801 9dbc
00000320: f788 acbd d553 033c c531 7bbd 597e 253d
00000330: 05d3 a5bd 575e ebbc 4028 83ba 0877 aebc
00000340: a522 9ebd 7fe5 c9bc 9ca1 05be e3e5 f7bd
00000350: dcff d13d 017e 51bb b059 03be e28d f3bd
00000360: 4d21 42bd 5bbc c73c 7afd 10be 77e0 113d
00000370: 69da f1bd bfcc cebd da6f 69bd 2040 62bd
00000380: 295f 0bbe d289 02be cd8f 78bd 0018 8dbd
00000390: adbe 303d b1b8 643d 4b80 5ebd 5db0 98bd
000003a0: 91db 28bd dab9 3dbc 4df2 9ebd 7067 23bd
000003b0: a817 483d da2b 19bd 0725 09be 277a 74bd
000003c0: a5b0 d0bd dbed 863d cd16 19bd c783 85bd
000003d0: dc29 86bc f77c 1fbd 1549 efbd 9476 00bd
000003e0: 8d88 4cbd 3c8d 83bc d181 113c 887e 44bc
000003f0: 9449 6fbd c54a a8bd a077 febc 6976 d2bd
-0.098612994 -0.07414898 -0.10242659 -0.011523804 0.040293824 0.040199377 -0.05655144 -0.120715514
0.026963072 -0.04097269 0.012865854 -0.072410226 0.0063950126 -0.0381242 -0.0118106725 0.001006693
-0.02877769 0.021169342 -0.11233721 0.06146835 -0.0416861 0.012228927 -0.04400413 -0.058372866
-0.005726596 -0.0711349 -0.101017065 0.05246635 0.011871 -0.0488868 -0.037422948 0.009827411
-0.05187947 -0.060632434 -0.015146469 0.012851823 -0.101095796 -0.010927591 -0.11715325 -0.0046181628
-0.041305188 -0.028546361 -0.070451245 -0.054296162 -0.0046415823 -0.021132855 0.030961957 -0.0072210724
-0.08612092 0.09224245 -0.121218644 -0.099311724 -0.06689237 -0.0915218 -0.06418236 -0.082109965
0.055279307 0.053303998 -0.023545105 -0.13763379 0.124238744 -0.07015979 0.020621153 -0.08876458
-0.1045372 0.01161065 -0.12989779 0.016506044 -0.023089258 -0.13422176 0.013218986 -0.03109636
0.014474472 -0.04380869 -0.050146416 0.02936904 0.037805077 -0.065551475 0.029343784 -0.14694244
-0.12581098 -0.10270106 -0.015892498 -0.023364177 -0.017959263 -0.1325313 0.05712299 -0.11023027
-0.0560065 -0.095054574 -0.06736187 -0.050076272 -0.04590286 -0.0238609 -0.11070613 -0.012431308
0.00541644 -0.080835424 0.038840447 -0.074151665 -0.12760149 -0.12699777 -0.054992724 9.135372e-05
0.042371005 -0.051039435 -0.03029954 -0.01932652 0.022369621 0.072011374 0.023104114 -0.10715909
-0.052861776 -0.10600035 -0.088770926 -0.10305146 -0.094840415 0.006882865 -0.007223151 -0.06827101
-0.035475276 0.036383078 0.018226802 -0.0022465661 -0.062998556 -0.12768523 0.0025226853 -0.024761172
-0.12347484 -0.07339667 -0.08081859 -0.04288391 -0.10126862 0.028694462 0.020538563 -0.14211284
0.028757956 0.008746369 -0.021908494 -0.03045688 -0.07998685 -0.10195997 -0.061041344 -0.13828996
-0.13535808 0.0002087084 0.041642077 -0.019422743 -0.1192861 0.005643378 -0.015983418 -0.0093682185
-0.008723386 -0.0871014 -0.08814562 -0.056884315 0.039908398 -0.12764049 -0.042878218 0.0020129397
-0.003982554 0.014283986 -0.04181561 -0.008874415 -0.15188031 -0.001726069 -0.10254279 -0.059339724
0.010940839 -0.12070596 -0.1060345 0.042650472 -0.11450017 -0.035209008 0.062821224 -0.060219735
-0.018053085 -0.12667812 -0.011179226 -0.00055327726 -0.07993543 -0.07004596 0.07157427 -0.11269272
-0.1257228 -0.06785306 -0.102106966 -0.13003236 -0.050065376 0.033669427 0.064917415 0.008630949
-0.1123978 -0.044914164 -0.048078336 -0.13368767 -0.047042143 -0.043991365 0.069662064 -0.019165918
-0.084245615 0.008015593 -0.06132676 0.040403698 -0.080968894 -0.028731508 -0.0010006502 -0.021296993
-0.07721452 -0.024645565 -0.1304993 -0.12104394 0.102538794 -0.0031965973 -0.12827182 -0.118922964
-0.04739504 0.024381807 -0.14159194 0.035614457 -0.118092366 -0.10097646 -0.056991436 -0.055236936
-0.1361052 -0.12747887 -0.060684014 -0.06889343 0.043150593 0.055840198 -0.05432157 -0.074555136
-0.04122502 -0.011579955 -0.07761059 -0.039893568 0.048850685 -0.037395336 -0.13393031 -0.059686806
-0.10189942 0.06588336 -0.03737526 -0.06519275 -0.016377382 -0.038937535 -0.11683861 -0.031363085
-0.049934912 -0.016058557 0.008881048 -0.011993058 -0.05841978 -0.08217386 -0.031062901 -0.10276491

linear2.bias f4 [3]
00000000: 2739 adbd a196 e2bd 1f71 20bd
-0.084581666 -0.110638864 -0.03917038
